{"modelTopology":{"class_name":"Model","config":{"name":"model2","layers":[{"name":"input101","class_name":"InputLayer","config":{"batch_input_shape":[null,3],"dtype":"float32","sparse":false,"name":"input101"},"inbound_nodes":[]},{"name":"input102","class_name":"InputLayer","config":{"batch_input_shape":[null,3],"dtype":"float32","sparse":false,"name":"input102"},"inbound_nodes":[]},{"name":"input103","class_name":"InputLayer","config":{"batch_input_shape":[null,3],"dtype":"float32","sparse":false,"name":"input103"},"inbound_nodes":[]},{"name":"input104","class_name":"InputLayer","config":{"batch_input_shape":[null,3],"dtype":"float32","sparse":false,"name":"input104"},"inbound_nodes":[]},{"name":"input105","class_name":"InputLayer","config":{"batch_input_shape":[null,3],"dtype":"float32","sparse":false,"name":"input105"},"inbound_nodes":[]},{"name":"input106","class_name":"InputLayer","config":{"batch_input_shape":[null,3],"dtype":"float32","sparse":false,"name":"input106"},"inbound_nodes":[]},{"name":"input107","class_name":"InputLayer","config":{"batch_input_shape":[null,3],"dtype":"float32","sparse":false,"name":"input107"},"inbound_nodes":[]},{"name":"input108","class_name":"InputLayer","config":{"batch_input_shape":[null,3],"dtype":"float32","sparse":false,"name":"input108"},"inbound_nodes":[]},{"name":"input109","class_name":"InputLayer","config":{"batch_input_shape":[null,3],"dtype":"float32","sparse":false,"name":"input109"},"inbound_nodes":[]},{"name":"input110","class_name":"InputLayer","config":{"batch_input_shape":[null,3],"dtype":"float32","sparse":false,"name":"input110"},"inbound_nodes":[]},{"name":"input111","class_name":"InputLayer","config":{"batch_input_shape":[null,3],"dtype":"float32","sparse":false,"name":"input111"},"inbound_nodes":[]},{"name":"input112","class_name":"InputLayer","config":{"batch_input_shape":[null,3],"dtype":"float32","sparse":false,"name":"input112"},"inbound_nodes":[]},{"name":"input113","class_name":"InputLayer","config":{"batch_input_shape":[null,3],"dtype":"float32","sparse":false,"name":"input113"},"inbound_nodes":[]},{"name":"input114","class_name":"InputLayer","config":{"batch_input_shape":[null,3],"dtype":"float32","sparse":false,"name":"input114"},"inbound_nodes":[]},{"name":"input115","class_name":"InputLayer","config":{"batch_input_shape":[null,3],"dtype":"float32","sparse":false,"name":"input115"},"inbound_nodes":[]},{"name":"input116","class_name":"InputLayer","config":{"batch_input_shape":[null,3],"dtype":"float32","sparse":false,"name":"input116"},"inbound_nodes":[]},{"name":"input117","class_name":"InputLayer","config":{"batch_input_shape":[null,3],"dtype":"float32","sparse":false,"name":"input117"},"inbound_nodes":[]},{"name":"input118","class_name":"InputLayer","config":{"batch_input_shape":[null,3],"dtype":"float32","sparse":false,"name":"input118"},"inbound_nodes":[]},{"name":"input119","class_name":"InputLayer","config":{"batch_input_shape":[null,3],"dtype":"float32","sparse":false,"name":"input119"},"inbound_nodes":[]},{"name":"input120","class_name":"InputLayer","config":{"batch_input_shape":[null,3],"dtype":"float32","sparse":false,"name":"input120"},"inbound_nodes":[]},{"name":"input121","class_name":"InputLayer","config":{"batch_input_shape":[null,3],"dtype":"float32","sparse":false,"name":"input121"},"inbound_nodes":[]},{"name":"input122","class_name":"InputLayer","config":{"batch_input_shape":[null,3],"dtype":"float32","sparse":false,"name":"input122"},"inbound_nodes":[]},{"name":"input123","class_name":"InputLayer","config":{"batch_input_shape":[null,3],"dtype":"float32","sparse":false,"name":"input123"},"inbound_nodes":[]},{"name":"input124","class_name":"InputLayer","config":{"batch_input_shape":[null,3],"dtype":"float32","sparse":false,"name":"input124"},"inbound_nodes":[]},{"name":"input125","class_name":"InputLayer","config":{"batch_input_shape":[null,3],"dtype":"float32","sparse":false,"name":"input125"},"inbound_nodes":[]},{"name":"input126","class_name":"InputLayer","config":{"batch_input_shape":[null,3],"dtype":"float32","sparse":false,"name":"input126"},"inbound_nodes":[]},{"name":"input127","class_name":"InputLayer","config":{"batch_input_shape":[null,3],"dtype":"float32","sparse":false,"name":"input127"},"inbound_nodes":[]},{"name":"input128","class_name":"InputLayer","config":{"batch_input_shape":[null,3],"dtype":"float32","sparse":false,"name":"input128"},"inbound_nodes":[]},{"name":"input129","class_name":"InputLayer","config":{"batch_input_shape":[null,3],"dtype":"float32","sparse":false,"name":"input129"},"inbound_nodes":[]},{"name":"input130","class_name":"InputLayer","config":{"batch_input_shape":[null,3],"dtype":"float32","sparse":false,"name":"input130"},"inbound_nodes":[]},{"name":"input131","class_name":"InputLayer","config":{"batch_input_shape":[null,3],"dtype":"float32","sparse":false,"name":"input131"},"inbound_nodes":[]},{"name":"input132","class_name":"InputLayer","config":{"batch_input_shape":[null,3],"dtype":"float32","sparse":false,"name":"input132"},"inbound_nodes":[]},{"name":"input133","class_name":"InputLayer","config":{"batch_input_shape":[null,3],"dtype":"float32","sparse":false,"name":"input133"},"inbound_nodes":[]},{"name":"input134","class_name":"InputLayer","config":{"batch_input_shape":[null,3],"dtype":"float32","sparse":false,"name":"input134"},"inbound_nodes":[]},{"name":"input135","class_name":"InputLayer","config":{"batch_input_shape":[null,3],"dtype":"float32","sparse":false,"name":"input135"},"inbound_nodes":[]},{"name":"input136","class_name":"InputLayer","config":{"batch_input_shape":[null,3],"dtype":"float32","sparse":false,"name":"input136"},"inbound_nodes":[]},{"name":"input137","class_name":"InputLayer","config":{"batch_input_shape":[null,3],"dtype":"float32","sparse":false,"name":"input137"},"inbound_nodes":[]},{"name":"input138","class_name":"InputLayer","config":{"batch_input_shape":[null,3],"dtype":"float32","sparse":false,"name":"input138"},"inbound_nodes":[]},{"name":"input139","class_name":"InputLayer","config":{"batch_input_shape":[null,3],"dtype":"float32","sparse":false,"name":"input139"},"inbound_nodes":[]},{"name":"input140","class_name":"InputLayer","config":{"batch_input_shape":[null,3],"dtype":"float32","sparse":false,"name":"input140"},"inbound_nodes":[]},{"name":"input141","class_name":"InputLayer","config":{"batch_input_shape":[null,3],"dtype":"float32","sparse":false,"name":"input141"},"inbound_nodes":[]},{"name":"input142","class_name":"InputLayer","config":{"batch_input_shape":[null,3],"dtype":"float32","sparse":false,"name":"input142"},"inbound_nodes":[]},{"name":"input143","class_name":"InputLayer","config":{"batch_input_shape":[null,3],"dtype":"float32","sparse":false,"name":"input143"},"inbound_nodes":[]},{"name":"input144","class_name":"InputLayer","config":{"batch_input_shape":[null,3],"dtype":"float32","sparse":false,"name":"input144"},"inbound_nodes":[]},{"name":"input145","class_name":"InputLayer","config":{"batch_input_shape":[null,3],"dtype":"float32","sparse":false,"name":"input145"},"inbound_nodes":[]},{"name":"input146","class_name":"InputLayer","config":{"batch_input_shape":[null,3],"dtype":"float32","sparse":false,"name":"input146"},"inbound_nodes":[]},{"name":"input147","class_name":"InputLayer","config":{"batch_input_shape":[null,3],"dtype":"float32","sparse":false,"name":"input147"},"inbound_nodes":[]},{"name":"input148","class_name":"InputLayer","config":{"batch_input_shape":[null,3],"dtype":"float32","sparse":false,"name":"input148"},"inbound_nodes":[]},{"name":"input149","class_name":"InputLayer","config":{"batch_input_shape":[null,3],"dtype":"float32","sparse":false,"name":"input149"},"inbound_nodes":[]},{"name":"input150","class_name":"InputLayer","config":{"batch_input_shape":[null,3],"dtype":"float32","sparse":false,"name":"input150"},"inbound_nodes":[]},{"name":"input151","class_name":"InputLayer","config":{"batch_input_shape":[null,3],"dtype":"float32","sparse":false,"name":"input151"},"inbound_nodes":[]},{"name":"input152","class_name":"InputLayer","config":{"batch_input_shape":[null,3],"dtype":"float32","sparse":false,"name":"input152"},"inbound_nodes":[]},{"name":"input153","class_name":"InputLayer","config":{"batch_input_shape":[null,3],"dtype":"float32","sparse":false,"name":"input153"},"inbound_nodes":[]},{"name":"input154","class_name":"InputLayer","config":{"batch_input_shape":[null,3],"dtype":"float32","sparse":false,"name":"input154"},"inbound_nodes":[]},{"name":"input155","class_name":"InputLayer","config":{"batch_input_shape":[null,3],"dtype":"float32","sparse":false,"name":"input155"},"inbound_nodes":[]},{"name":"input156","class_name":"InputLayer","config":{"batch_input_shape":[null,3],"dtype":"float32","sparse":false,"name":"input156"},"inbound_nodes":[]},{"name":"input157","class_name":"InputLayer","config":{"batch_input_shape":[null,3],"dtype":"float32","sparse":false,"name":"input157"},"inbound_nodes":[]},{"name":"input158","class_name":"InputLayer","config":{"batch_input_shape":[null,3],"dtype":"float32","sparse":false,"name":"input158"},"inbound_nodes":[]},{"name":"input159","class_name":"InputLayer","config":{"batch_input_shape":[null,3],"dtype":"float32","sparse":false,"name":"input159"},"inbound_nodes":[]},{"name":"input160","class_name":"InputLayer","config":{"batch_input_shape":[null,3],"dtype":"float32","sparse":false,"name":"input160"},"inbound_nodes":[]},{"name":"input161","class_name":"InputLayer","config":{"batch_input_shape":[null,3],"dtype":"float32","sparse":false,"name":"input161"},"inbound_nodes":[]},{"name":"input162","class_name":"InputLayer","config":{"batch_input_shape":[null,3],"dtype":"float32","sparse":false,"name":"input162"},"inbound_nodes":[]},{"name":"input163","class_name":"InputLayer","config":{"batch_input_shape":[null,3],"dtype":"float32","sparse":false,"name":"input163"},"inbound_nodes":[]},{"name":"input164","class_name":"InputLayer","config":{"batch_input_shape":[null,3],"dtype":"float32","sparse":false,"name":"input164"},"inbound_nodes":[]},{"name":"input165","class_name":"InputLayer","config":{"batch_input_shape":[null,3],"dtype":"float32","sparse":false,"name":"input165"},"inbound_nodes":[]},{"name":"input166","class_name":"InputLayer","config":{"batch_input_shape":[null,3],"dtype":"float32","sparse":false,"name":"input166"},"inbound_nodes":[]},{"name":"input167","class_name":"InputLayer","config":{"batch_input_shape":[null,3],"dtype":"float32","sparse":false,"name":"input167"},"inbound_nodes":[]},{"name":"input168","class_name":"InputLayer","config":{"batch_input_shape":[null,3],"dtype":"float32","sparse":false,"name":"input168"},"inbound_nodes":[]},{"name":"input169","class_name":"InputLayer","config":{"batch_input_shape":[null,3],"dtype":"float32","sparse":false,"name":"input169"},"inbound_nodes":[]},{"name":"input170","class_name":"InputLayer","config":{"batch_input_shape":[null,3],"dtype":"float32","sparse":false,"name":"input170"},"inbound_nodes":[]},{"name":"input171","class_name":"InputLayer","config":{"batch_input_shape":[null,3],"dtype":"float32","sparse":false,"name":"input171"},"inbound_nodes":[]},{"name":"input172","class_name":"InputLayer","config":{"batch_input_shape":[null,3],"dtype":"float32","sparse":false,"name":"input172"},"inbound_nodes":[]},{"name":"input173","class_name":"InputLayer","config":{"batch_input_shape":[null,3],"dtype":"float32","sparse":false,"name":"input173"},"inbound_nodes":[]},{"name":"input174","class_name":"InputLayer","config":{"batch_input_shape":[null,3],"dtype":"float32","sparse":false,"name":"input174"},"inbound_nodes":[]},{"name":"input175","class_name":"InputLayer","config":{"batch_input_shape":[null,3],"dtype":"float32","sparse":false,"name":"input175"},"inbound_nodes":[]},{"name":"input176","class_name":"InputLayer","config":{"batch_input_shape":[null,3],"dtype":"float32","sparse":false,"name":"input176"},"inbound_nodes":[]},{"name":"input177","class_name":"InputLayer","config":{"batch_input_shape":[null,3],"dtype":"float32","sparse":false,"name":"input177"},"inbound_nodes":[]},{"name":"input178","class_name":"InputLayer","config":{"batch_input_shape":[null,3],"dtype":"float32","sparse":false,"name":"input178"},"inbound_nodes":[]},{"name":"input179","class_name":"InputLayer","config":{"batch_input_shape":[null,3],"dtype":"float32","sparse":false,"name":"input179"},"inbound_nodes":[]},{"name":"input180","class_name":"InputLayer","config":{"batch_input_shape":[null,3],"dtype":"float32","sparse":false,"name":"input180"},"inbound_nodes":[]},{"name":"input181","class_name":"InputLayer","config":{"batch_input_shape":[null,3],"dtype":"float32","sparse":false,"name":"input181"},"inbound_nodes":[]},{"name":"input182","class_name":"InputLayer","config":{"batch_input_shape":[null,3],"dtype":"float32","sparse":false,"name":"input182"},"inbound_nodes":[]},{"name":"input183","class_name":"InputLayer","config":{"batch_input_shape":[null,3],"dtype":"float32","sparse":false,"name":"input183"},"inbound_nodes":[]},{"name":"input184","class_name":"InputLayer","config":{"batch_input_shape":[null,3],"dtype":"float32","sparse":false,"name":"input184"},"inbound_nodes":[]},{"name":"input185","class_name":"InputLayer","config":{"batch_input_shape":[null,3],"dtype":"float32","sparse":false,"name":"input185"},"inbound_nodes":[]},{"name":"input186","class_name":"InputLayer","config":{"batch_input_shape":[null,3],"dtype":"float32","sparse":false,"name":"input186"},"inbound_nodes":[]},{"name":"input187","class_name":"InputLayer","config":{"batch_input_shape":[null,3],"dtype":"float32","sparse":false,"name":"input187"},"inbound_nodes":[]},{"name":"input188","class_name":"InputLayer","config":{"batch_input_shape":[null,3],"dtype":"float32","sparse":false,"name":"input188"},"inbound_nodes":[]},{"name":"input189","class_name":"InputLayer","config":{"batch_input_shape":[null,3],"dtype":"float32","sparse":false,"name":"input189"},"inbound_nodes":[]},{"name":"input190","class_name":"InputLayer","config":{"batch_input_shape":[null,3],"dtype":"float32","sparse":false,"name":"input190"},"inbound_nodes":[]},{"name":"input191","class_name":"InputLayer","config":{"batch_input_shape":[null,3],"dtype":"float32","sparse":false,"name":"input191"},"inbound_nodes":[]},{"name":"input192","class_name":"InputLayer","config":{"batch_input_shape":[null,3],"dtype":"float32","sparse":false,"name":"input192"},"inbound_nodes":[]},{"name":"input193","class_name":"InputLayer","config":{"batch_input_shape":[null,3],"dtype":"float32","sparse":false,"name":"input193"},"inbound_nodes":[]},{"name":"input194","class_name":"InputLayer","config":{"batch_input_shape":[null,3],"dtype":"float32","sparse":false,"name":"input194"},"inbound_nodes":[]},{"name":"input195","class_name":"InputLayer","config":{"batch_input_shape":[null,3],"dtype":"float32","sparse":false,"name":"input195"},"inbound_nodes":[]},{"name":"input196","class_name":"InputLayer","config":{"batch_input_shape":[null,3],"dtype":"float32","sparse":false,"name":"input196"},"inbound_nodes":[]},{"name":"input197","class_name":"InputLayer","config":{"batch_input_shape":[null,3],"dtype":"float32","sparse":false,"name":"input197"},"inbound_nodes":[]},{"name":"input198","class_name":"InputLayer","config":{"batch_input_shape":[null,3],"dtype":"float32","sparse":false,"name":"input198"},"inbound_nodes":[]},{"name":"input199","class_name":"InputLayer","config":{"batch_input_shape":[null,3],"dtype":"float32","sparse":false,"name":"input199"},"inbound_nodes":[]},{"name":"input200","class_name":"InputLayer","config":{"batch_input_shape":[null,3],"dtype":"float32","sparse":false,"name":"input200"},"inbound_nodes":[]},{"name":"Megan_Fox","class_name":"Dense","config":{"units":136,"activation":"linear","use_bias":true,"kernel_initializer":{"class_name":"VarianceScaling","config":{"scale":1,"mode":"fan_avg","distribution":"normal","seed":null}},"bias_initializer":{"class_name":"Zeros","config":{}},"kernel_regularizer":null,"bias_regularizer":null,"activity_regularizer":null,"kernel_constraint":null,"bias_constraint":null,"name":"Megan_Fox","trainable":true},"inbound_nodes":[[["input101",0,0,{}]]]},{"name":"Mila_Kunis","class_name":"Dense","config":{"units":136,"activation":"linear","use_bias":true,"kernel_initializer":{"class_name":"VarianceScaling","config":{"scale":1,"mode":"fan_avg","distribution":"normal","seed":null}},"bias_initializer":{"class_name":"Zeros","config":{}},"kernel_regularizer":null,"bias_regularizer":null,"activity_regularizer":null,"kernel_constraint":null,"bias_constraint":null,"name":"Mila_Kunis","trainable":true},"inbound_nodes":[[["input102",0,0,{}]]]},{"name":"Amanda_Seyfried","class_name":"Dense","config":{"units":136,"activation":"linear","use_bias":true,"kernel_initializer":{"class_name":"VarianceScaling","config":{"scale":1,"mode":"fan_avg","distribution":"normal","seed":null}},"bias_initializer":{"class_name":"Zeros","config":{}},"kernel_regularizer":null,"bias_regularizer":null,"activity_regularizer":null,"kernel_constraint":null,"bias_constraint":null,"name":"Amanda_Seyfried","trainable":true},"inbound_nodes":[[["input103",0,0,{}]]]},{"name":"Hayden_Panettiere","class_name":"Dense","config":{"units":136,"activation":"linear","use_bias":true,"kernel_initializer":{"class_name":"VarianceScaling","config":{"scale":1,"mode":"fan_avg","distribution":"normal","seed":null}},"bias_initializer":{"class_name":"Zeros","config":{}},"kernel_regularizer":null,"bias_regularizer":null,"activity_regularizer":null,"kernel_constraint":null,"bias_constraint":null,"name":"Hayden_Panettiere","trainable":true},"inbound_nodes":[[["input104",0,0,{}]]]},{"name":"Missy_Peregrym","class_name":"Dense","config":{"units":136,"activation":"linear","use_bias":true,"kernel_initializer":{"class_name":"VarianceScaling","config":{"scale":1,"mode":"fan_avg","distribution":"normal","seed":null}},"bias_initializer":{"class_name":"Zeros","config":{}},"kernel_regularizer":null,"bias_regularizer":null,"activity_regularizer":null,"kernel_constraint":null,"bias_constraint":null,"name":"Missy_Peregrym","trainable":true},"inbound_nodes":[[["input105",0,0,{}]]]},{"name":"Rachel_McAdams","class_name":"Dense","config":{"units":136,"activation":"linear","use_bias":true,"kernel_initializer":{"class_name":"VarianceScaling","config":{"scale":1,"mode":"fan_avg","distribution":"normal","seed":null}},"bias_initializer":{"class_name":"Zeros","config":{}},"kernel_regularizer":null,"bias_regularizer":null,"activity_regularizer":null,"kernel_constraint":null,"bias_constraint":null,"name":"Rachel_McAdams","trainable":true},"inbound_nodes":[[["input106",0,0,{}]]]},{"name":"Shantel_VanSanten","class_name":"Dense","config":{"units":136,"activation":"linear","use_bias":true,"kernel_initializer":{"class_name":"VarianceScaling","config":{"scale":1,"mode":"fan_avg","distribution":"normal","seed":null}},"bias_initializer":{"class_name":"Zeros","config":{}},"kernel_regularizer":null,"bias_regularizer":null,"activity_regularizer":null,"kernel_constraint":null,"bias_constraint":null,"name":"Shantel_VanSanten","trainable":true},"inbound_nodes":[[["input107",0,0,{}]]]},{"name":"Natalie_Portman","class_name":"Dense","config":{"units":136,"activation":"linear","use_bias":true,"kernel_initializer":{"class_name":"VarianceScaling","config":{"scale":1,"mode":"fan_avg","distribution":"normal","seed":null}},"bias_initializer":{"class_name":"Zeros","config":{}},"kernel_regularizer":null,"bias_regularizer":null,"activity_regularizer":null,"kernel_constraint":null,"bias_constraint":null,"name":"Natalie_Portman","trainable":true},"inbound_nodes":[[["input108",0,0,{}]]]},{"name":"Sophia_Bush","class_name":"Dense","config":{"units":136,"activation":"linear","use_bias":true,"kernel_initializer":{"class_name":"VarianceScaling","config":{"scale":1,"mode":"fan_avg","distribution":"normal","seed":null}},"bias_initializer":{"class_name":"Zeros","config":{}},"kernel_regularizer":null,"bias_regularizer":null,"activity_regularizer":null,"kernel_constraint":null,"bias_constraint":null,"name":"Sophia_Bush","trainable":true},"inbound_nodes":[[["input109",0,0,{}]]]},{"name":"Jennifer_Connelly","class_name":"Dense","config":{"units":136,"activation":"linear","use_bias":true,"kernel_initializer":{"class_name":"VarianceScaling","config":{"scale":1,"mode":"fan_avg","distribution":"normal","seed":null}},"bias_initializer":{"class_name":"Zeros","config":{}},"kernel_regularizer":null,"bias_regularizer":null,"activity_regularizer":null,"kernel_constraint":null,"bias_constraint":null,"name":"Jennifer_Connelly","trainable":true},"inbound_nodes":[[["input110",0,0,{}]]]},{"name":"Malin_Akerman","class_name":"Dense","config":{"units":136,"activation":"linear","use_bias":true,"kernel_initializer":{"class_name":"VarianceScaling","config":{"scale":1,"mode":"fan_avg","distribution":"normal","seed":null}},"bias_initializer":{"class_name":"Zeros","config":{}},"kernel_regularizer":null,"bias_regularizer":null,"activity_regularizer":null,"kernel_constraint":null,"bias_constraint":null,"name":"Malin_Akerman","trainable":true},"inbound_nodes":[[["input111",0,0,{}]]]},{"name":"Michelle_Monaghan","class_name":"Dense","config":{"units":136,"activation":"linear","use_bias":true,"kernel_initializer":{"class_name":"VarianceScaling","config":{"scale":1,"mode":"fan_avg","distribution":"normal","seed":null}},"bias_initializer":{"class_name":"Zeros","config":{}},"kernel_regularizer":null,"bias_regularizer":null,"activity_regularizer":null,"kernel_constraint":null,"bias_constraint":null,"name":"Michelle_Monaghan","trainable":true},"inbound_nodes":[[["input112",0,0,{}]]]},{"name":"Lyndsy_Fonseca","class_name":"Dense","config":{"units":136,"activation":"linear","use_bias":true,"kernel_initializer":{"class_name":"VarianceScaling","config":{"scale":1,"mode":"fan_avg","distribution":"normal","seed":null}},"bias_initializer":{"class_name":"Zeros","config":{}},"kernel_regularizer":null,"bias_regularizer":null,"activity_regularizer":null,"kernel_constraint":null,"bias_constraint":null,"name":"Lyndsy_Fonseca","trainable":true},"inbound_nodes":[[["input113",0,0,{}]]]},{"name":"Scarlett_Johansson","class_name":"Dense","config":{"units":136,"activation":"linear","use_bias":true,"kernel_initializer":{"class_name":"VarianceScaling","config":{"scale":1,"mode":"fan_avg","distribution":"normal","seed":null}},"bias_initializer":{"class_name":"Zeros","config":{}},"kernel_regularizer":null,"bias_regularizer":null,"activity_regularizer":null,"kernel_constraint":null,"bias_constraint":null,"name":"Scarlett_Johansson","trainable":true},"inbound_nodes":[[["input114",0,0,{}]]]},{"name":"Raquel_Welch","class_name":"Dense","config":{"units":136,"activation":"linear","use_bias":true,"kernel_initializer":{"class_name":"VarianceScaling","config":{"scale":1,"mode":"fan_avg","distribution":"normal","seed":null}},"bias_initializer":{"class_name":"Zeros","config":{}},"kernel_regularizer":null,"bias_regularizer":null,"activity_regularizer":null,"kernel_constraint":null,"bias_constraint":null,"name":"Raquel_Welch","trainable":true},"inbound_nodes":[[["input115",0,0,{}]]]},{"name":"Olivia_Wilde","class_name":"Dense","config":{"units":136,"activation":"linear","use_bias":true,"kernel_initializer":{"class_name":"VarianceScaling","config":{"scale":1,"mode":"fan_avg","distribution":"normal","seed":null}},"bias_initializer":{"class_name":"Zeros","config":{}},"kernel_regularizer":null,"bias_regularizer":null,"activity_regularizer":null,"kernel_constraint":null,"bias_constraint":null,"name":"Olivia_Wilde","trainable":true},"inbound_nodes":[[["input116",0,0,{}]]]},{"name":"Emma_Stone","class_name":"Dense","config":{"units":136,"activation":"linear","use_bias":true,"kernel_initializer":{"class_name":"VarianceScaling","config":{"scale":1,"mode":"fan_avg","distribution":"normal","seed":null}},"bias_initializer":{"class_name":"Zeros","config":{}},"kernel_regularizer":null,"bias_regularizer":null,"activity_regularizer":null,"kernel_constraint":null,"bias_constraint":null,"name":"Emma_Stone","trainable":true},"inbound_nodes":[[["input117",0,0,{}]]]},{"name":"Jessica_Alba","class_name":"Dense","config":{"units":136,"activation":"linear","use_bias":true,"kernel_initializer":{"class_name":"VarianceScaling","config":{"scale":1,"mode":"fan_avg","distribution":"normal","seed":null}},"bias_initializer":{"class_name":"Zeros","config":{}},"kernel_regularizer":null,"bias_regularizer":null,"activity_regularizer":null,"kernel_constraint":null,"bias_constraint":null,"name":"Jessica_Alba","trainable":true},"inbound_nodes":[[["input118",0,0,{}]]]},{"name":"Bethany_Joy_Lenz","class_name":"Dense","config":{"units":136,"activation":"linear","use_bias":true,"kernel_initializer":{"class_name":"VarianceScaling","config":{"scale":1,"mode":"fan_avg","distribution":"normal","seed":null}},"bias_initializer":{"class_name":"Zeros","config":{}},"kernel_regularizer":null,"bias_regularizer":null,"activity_regularizer":null,"kernel_constraint":null,"bias_constraint":null,"name":"Bethany_Joy_Lenz","trainable":true},"inbound_nodes":[[["input119",0,0,{}]]]},{"name":"Ellen_Page","class_name":"Dense","config":{"units":136,"activation":"linear","use_bias":true,"kernel_initializer":{"class_name":"VarianceScaling","config":{"scale":1,"mode":"fan_avg","distribution":"normal","seed":null}},"bias_initializer":{"class_name":"Zeros","config":{}},"kernel_regularizer":null,"bias_regularizer":null,"activity_regularizer":null,"kernel_constraint":null,"bias_constraint":null,"name":"Ellen_Page","trainable":true},"inbound_nodes":[[["input120",0,0,{}]]]},{"name":"Kate_Beckinsale","class_name":"Dense","config":{"units":136,"activation":"linear","use_bias":true,"kernel_initializer":{"class_name":"VarianceScaling","config":{"scale":1,"mode":"fan_avg","distribution":"normal","seed":null}},"bias_initializer":{"class_name":"Zeros","config":{}},"kernel_regularizer":null,"bias_regularizer":null,"activity_regularizer":null,"kernel_constraint":null,"bias_constraint":null,"name":"Kate_Beckinsale","trainable":true},"inbound_nodes":[[["input121",0,0,{}]]]},{"name":"Diane_Kruger","class_name":"Dense","config":{"units":136,"activation":"linear","use_bias":true,"kernel_initializer":{"class_name":"VarianceScaling","config":{"scale":1,"mode":"fan_avg","distribution":"normal","seed":null}},"bias_initializer":{"class_name":"Zeros","config":{}},"kernel_regularizer":null,"bias_regularizer":null,"activity_regularizer":null,"kernel_constraint":null,"bias_constraint":null,"name":"Diane_Kruger","trainable":true},"inbound_nodes":[[["input122",0,0,{}]]]},{"name":"Rihanna","class_name":"Dense","config":{"units":136,"activation":"linear","use_bias":true,"kernel_initializer":{"class_name":"VarianceScaling","config":{"scale":1,"mode":"fan_avg","distribution":"normal","seed":null}},"bias_initializer":{"class_name":"Zeros","config":{}},"kernel_regularizer":null,"bias_regularizer":null,"activity_regularizer":null,"kernel_constraint":null,"bias_constraint":null,"name":"Rihanna","trainable":true},"inbound_nodes":[[["input123",0,0,{}]]]},{"name":"Rachel_Bilson","class_name":"Dense","config":{"units":136,"activation":"linear","use_bias":true,"kernel_initializer":{"class_name":"VarianceScaling","config":{"scale":1,"mode":"fan_avg","distribution":"normal","seed":null}},"bias_initializer":{"class_name":"Zeros","config":{}},"kernel_regularizer":null,"bias_regularizer":null,"activity_regularizer":null,"kernel_constraint":null,"bias_constraint":null,"name":"Rachel_Bilson","trainable":true},"inbound_nodes":[[["input124",0,0,{}]]]},{"name":"Drew_Barrymore","class_name":"Dense","config":{"units":136,"activation":"linear","use_bias":true,"kernel_initializer":{"class_name":"VarianceScaling","config":{"scale":1,"mode":"fan_avg","distribution":"normal","seed":null}},"bias_initializer":{"class_name":"Zeros","config":{}},"kernel_regularizer":null,"bias_regularizer":null,"activity_regularizer":null,"kernel_constraint":null,"bias_constraint":null,"name":"Drew_Barrymore","trainable":true},"inbound_nodes":[[["input125",0,0,{}]]]},{"name":"Taylor_Swift","class_name":"Dense","config":{"units":136,"activation":"linear","use_bias":true,"kernel_initializer":{"class_name":"VarianceScaling","config":{"scale":1,"mode":"fan_avg","distribution":"normal","seed":null}},"bias_initializer":{"class_name":"Zeros","config":{}},"kernel_regularizer":null,"bias_regularizer":null,"activity_regularizer":null,"kernel_constraint":null,"bias_constraint":null,"name":"Taylor_Swift","trainable":true},"inbound_nodes":[[["input126",0,0,{}]]]},{"name":"Alison_Lohman","class_name":"Dense","config":{"units":136,"activation":"linear","use_bias":true,"kernel_initializer":{"class_name":"VarianceScaling","config":{"scale":1,"mode":"fan_avg","distribution":"normal","seed":null}},"bias_initializer":{"class_name":"Zeros","config":{}},"kernel_regularizer":null,"bias_regularizer":null,"activity_regularizer":null,"kernel_constraint":null,"bias_constraint":null,"name":"Alison_Lohman","trainable":true},"inbound_nodes":[[["input127",0,0,{}]]]},{"name":"Angelina_Jolie","class_name":"Dense","config":{"units":136,"activation":"linear","use_bias":true,"kernel_initializer":{"class_name":"VarianceScaling","config":{"scale":1,"mode":"fan_avg","distribution":"normal","seed":null}},"bias_initializer":{"class_name":"Zeros","config":{}},"kernel_regularizer":null,"bias_regularizer":null,"activity_regularizer":null,"kernel_constraint":null,"bias_constraint":null,"name":"Angelina_Jolie","trainable":true},"inbound_nodes":[[["input128",0,0,{}]]]},{"name":"Marilyn_Monroe","class_name":"Dense","config":{"units":136,"activation":"linear","use_bias":true,"kernel_initializer":{"class_name":"VarianceScaling","config":{"scale":1,"mode":"fan_avg","distribution":"normal","seed":null}},"bias_initializer":{"class_name":"Zeros","config":{}},"kernel_regularizer":null,"bias_regularizer":null,"activity_regularizer":null,"kernel_constraint":null,"bias_constraint":null,"name":"Marilyn_Monroe","trainable":true},"inbound_nodes":[[["input129",0,0,{}]]]},{"name":"Ashley_Greene","class_name":"Dense","config":{"units":136,"activation":"linear","use_bias":true,"kernel_initializer":{"class_name":"VarianceScaling","config":{"scale":1,"mode":"fan_avg","distribution":"normal","seed":null}},"bias_initializer":{"class_name":"Zeros","config":{}},"kernel_regularizer":null,"bias_regularizer":null,"activity_regularizer":null,"kernel_constraint":null,"bias_constraint":null,"name":"Ashley_Greene","trainable":true},"inbound_nodes":[[["input130",0,0,{}]]]},{"name":"Jessica_Stroup","class_name":"Dense","config":{"units":136,"activation":"linear","use_bias":true,"kernel_initializer":{"class_name":"VarianceScaling","config":{"scale":1,"mode":"fan_avg","distribution":"normal","seed":null}},"bias_initializer":{"class_name":"Zeros","config":{}},"kernel_regularizer":null,"bias_regularizer":null,"activity_regularizer":null,"kernel_constraint":null,"bias_constraint":null,"name":"Jessica_Stroup","trainable":true},"inbound_nodes":[[["input131",0,0,{}]]]},{"name":"Ashley_Judd","class_name":"Dense","config":{"units":136,"activation":"linear","use_bias":true,"kernel_initializer":{"class_name":"VarianceScaling","config":{"scale":1,"mode":"fan_avg","distribution":"normal","seed":null}},"bias_initializer":{"class_name":"Zeros","config":{}},"kernel_regularizer":null,"bias_regularizer":null,"activity_regularizer":null,"kernel_constraint":null,"bias_constraint":null,"name":"Ashley_Judd","trainable":true},"inbound_nodes":[[["input132",0,0,{}]]]},{"name":"Leighton_Meester","class_name":"Dense","config":{"units":136,"activation":"linear","use_bias":true,"kernel_initializer":{"class_name":"VarianceScaling","config":{"scale":1,"mode":"fan_avg","distribution":"normal","seed":null}},"bias_initializer":{"class_name":"Zeros","config":{}},"kernel_regularizer":null,"bias_regularizer":null,"activity_regularizer":null,"kernel_constraint":null,"bias_constraint":null,"name":"Leighton_Meester","trainable":true},"inbound_nodes":[[["input133",0,0,{}]]]},{"name":"Catherine_Zeta_Jones","class_name":"Dense","config":{"units":136,"activation":"linear","use_bias":true,"kernel_initializer":{"class_name":"VarianceScaling","config":{"scale":1,"mode":"fan_avg","distribution":"normal","seed":null}},"bias_initializer":{"class_name":"Zeros","config":{}},"kernel_regularizer":null,"bias_regularizer":null,"activity_regularizer":null,"kernel_constraint":null,"bias_constraint":null,"name":"Catherine_Zeta_Jones","trainable":true},"inbound_nodes":[[["input134",0,0,{}]]]},{"name":"Nikki_Reed","class_name":"Dense","config":{"units":136,"activation":"linear","use_bias":true,"kernel_initializer":{"class_name":"VarianceScaling","config":{"scale":1,"mode":"fan_avg","distribution":"normal","seed":null}},"bias_initializer":{"class_name":"Zeros","config":{}},"kernel_regularizer":null,"bias_regularizer":null,"activity_regularizer":null,"kernel_constraint":null,"bias_constraint":null,"name":"Nikki_Reed","trainable":true},"inbound_nodes":[[["input135",0,0,{}]]]},{"name":"Beyonce","class_name":"Dense","config":{"units":136,"activation":"linear","use_bias":true,"kernel_initializer":{"class_name":"VarianceScaling","config":{"scale":1,"mode":"fan_avg","distribution":"normal","seed":null}},"bias_initializer":{"class_name":"Zeros","config":{}},"kernel_regularizer":null,"bias_regularizer":null,"activity_regularizer":null,"kernel_constraint":null,"bias_constraint":null,"name":"Beyonce","trainable":true},"inbound_nodes":[[["input136",0,0,{}]]]},{"name":"Shay_Mitchell","class_name":"Dense","config":{"units":136,"activation":"linear","use_bias":true,"kernel_initializer":{"class_name":"VarianceScaling","config":{"scale":1,"mode":"fan_avg","distribution":"normal","seed":null}},"bias_initializer":{"class_name":"Zeros","config":{}},"kernel_regularizer":null,"bias_regularizer":null,"activity_regularizer":null,"kernel_constraint":null,"bias_constraint":null,"name":"Shay_Mitchell","trainable":true},"inbound_nodes":[[["input137",0,0,{}]]]},{"name":"Eva_Green","class_name":"Dense","config":{"units":136,"activation":"linear","use_bias":true,"kernel_initializer":{"class_name":"VarianceScaling","config":{"scale":1,"mode":"fan_avg","distribution":"normal","seed":null}},"bias_initializer":{"class_name":"Zeros","config":{}},"kernel_regularizer":null,"bias_regularizer":null,"activity_regularizer":null,"kernel_constraint":null,"bias_constraint":null,"name":"Eva_Green","trainable":true},"inbound_nodes":[[["input138",0,0,{}]]]},{"name":"Cobie_Smulders","class_name":"Dense","config":{"units":136,"activation":"linear","use_bias":true,"kernel_initializer":{"class_name":"VarianceScaling","config":{"scale":1,"mode":"fan_avg","distribution":"normal","seed":null}},"bias_initializer":{"class_name":"Zeros","config":{}},"kernel_regularizer":null,"bias_regularizer":null,"activity_regularizer":null,"kernel_constraint":null,"bias_constraint":null,"name":"Cobie_Smulders","trainable":true},"inbound_nodes":[[["input139",0,0,{}]]]},{"name":"Zooey_Deschanel","class_name":"Dense","config":{"units":136,"activation":"linear","use_bias":true,"kernel_initializer":{"class_name":"VarianceScaling","config":{"scale":1,"mode":"fan_avg","distribution":"normal","seed":null}},"bias_initializer":{"class_name":"Zeros","config":{}},"kernel_regularizer":null,"bias_regularizer":null,"activity_regularizer":null,"kernel_constraint":null,"bias_constraint":null,"name":"Zooey_Deschanel","trainable":true},"inbound_nodes":[[["input140",0,0,{}]]]},{"name":"Emily_Blunt","class_name":"Dense","config":{"units":136,"activation":"linear","use_bias":true,"kernel_initializer":{"class_name":"VarianceScaling","config":{"scale":1,"mode":"fan_avg","distribution":"normal","seed":null}},"bias_initializer":{"class_name":"Zeros","config":{}},"kernel_regularizer":null,"bias_regularizer":null,"activity_regularizer":null,"kernel_constraint":null,"bias_constraint":null,"name":"Emily_Blunt","trainable":true},"inbound_nodes":[[["input141",0,0,{}]]]},{"name":"Kathryn_Prescott","class_name":"Dense","config":{"units":136,"activation":"linear","use_bias":true,"kernel_initializer":{"class_name":"VarianceScaling","config":{"scale":1,"mode":"fan_avg","distribution":"normal","seed":null}},"bias_initializer":{"class_name":"Zeros","config":{}},"kernel_regularizer":null,"bias_regularizer":null,"activity_regularizer":null,"kernel_constraint":null,"bias_constraint":null,"name":"Kathryn_Prescott","trainable":true},"inbound_nodes":[[["input142",0,0,{}]]]},{"name":"Katherine_Heigl","class_name":"Dense","config":{"units":136,"activation":"linear","use_bias":true,"kernel_initializer":{"class_name":"VarianceScaling","config":{"scale":1,"mode":"fan_avg","distribution":"normal","seed":null}},"bias_initializer":{"class_name":"Zeros","config":{}},"kernel_regularizer":null,"bias_regularizer":null,"activity_regularizer":null,"kernel_constraint":null,"bias_constraint":null,"name":"Katherine_Heigl","trainable":true},"inbound_nodes":[[["input143",0,0,{}]]]},{"name":"Ashley_Benson","class_name":"Dense","config":{"units":136,"activation":"linear","use_bias":true,"kernel_initializer":{"class_name":"VarianceScaling","config":{"scale":1,"mode":"fan_avg","distribution":"normal","seed":null}},"bias_initializer":{"class_name":"Zeros","config":{}},"kernel_regularizer":null,"bias_regularizer":null,"activity_regularizer":null,"kernel_constraint":null,"bias_constraint":null,"name":"Ashley_Benson","trainable":true},"inbound_nodes":[[["input144",0,0,{}]]]},{"name":"Hilarie_Burton","class_name":"Dense","config":{"units":136,"activation":"linear","use_bias":true,"kernel_initializer":{"class_name":"VarianceScaling","config":{"scale":1,"mode":"fan_avg","distribution":"normal","seed":null}},"bias_initializer":{"class_name":"Zeros","config":{}},"kernel_regularizer":null,"bias_regularizer":null,"activity_regularizer":null,"kernel_constraint":null,"bias_constraint":null,"name":"Hilarie_Burton","trainable":true},"inbound_nodes":[[["input145",0,0,{}]]]},{"name":"Alexis_Bledel","class_name":"Dense","config":{"units":136,"activation":"linear","use_bias":true,"kernel_initializer":{"class_name":"VarianceScaling","config":{"scale":1,"mode":"fan_avg","distribution":"normal","seed":null}},"bias_initializer":{"class_name":"Zeros","config":{}},"kernel_regularizer":null,"bias_regularizer":null,"activity_regularizer":null,"kernel_constraint":null,"bias_constraint":null,"name":"Alexis_Bledel","trainable":true},"inbound_nodes":[[["input146",0,0,{}]]]},{"name":"Rosario_Dawson","class_name":"Dense","config":{"units":136,"activation":"linear","use_bias":true,"kernel_initializer":{"class_name":"VarianceScaling","config":{"scale":1,"mode":"fan_avg","distribution":"normal","seed":null}},"bias_initializer":{"class_name":"Zeros","config":{}},"kernel_regularizer":null,"bias_regularizer":null,"activity_regularizer":null,"kernel_constraint":null,"bias_constraint":null,"name":"Rosario_Dawson","trainable":true},"inbound_nodes":[[["input147",0,0,{}]]]},{"name":"Kate_Walsh","class_name":"Dense","config":{"units":136,"activation":"linear","use_bias":true,"kernel_initializer":{"class_name":"VarianceScaling","config":{"scale":1,"mode":"fan_avg","distribution":"normal","seed":null}},"bias_initializer":{"class_name":"Zeros","config":{}},"kernel_regularizer":null,"bias_regularizer":null,"activity_regularizer":null,"kernel_constraint":null,"bias_constraint":null,"name":"Kate_Walsh","trainable":true},"inbound_nodes":[[["input148",0,0,{}]]]},{"name":"Claire_Danes","class_name":"Dense","config":{"units":136,"activation":"linear","use_bias":true,"kernel_initializer":{"class_name":"VarianceScaling","config":{"scale":1,"mode":"fan_avg","distribution":"normal","seed":null}},"bias_initializer":{"class_name":"Zeros","config":{}},"kernel_regularizer":null,"bias_regularizer":null,"activity_regularizer":null,"kernel_constraint":null,"bias_constraint":null,"name":"Claire_Danes","trainable":true},"inbound_nodes":[[["input149",0,0,{}]]]},{"name":"Sienna_Miller","class_name":"Dense","config":{"units":136,"activation":"linear","use_bias":true,"kernel_initializer":{"class_name":"VarianceScaling","config":{"scale":1,"mode":"fan_avg","distribution":"normal","seed":null}},"bias_initializer":{"class_name":"Zeros","config":{}},"kernel_regularizer":null,"bias_regularizer":null,"activity_regularizer":null,"kernel_constraint":null,"bias_constraint":null,"name":"Sienna_Miller","trainable":true},"inbound_nodes":[[["input150",0,0,{}]]]},{"name":"Shannyn_Sossamon","class_name":"Dense","config":{"units":136,"activation":"linear","use_bias":true,"kernel_initializer":{"class_name":"VarianceScaling","config":{"scale":1,"mode":"fan_avg","distribution":"normal","seed":null}},"bias_initializer":{"class_name":"Zeros","config":{}},"kernel_regularizer":null,"bias_regularizer":null,"activity_regularizer":null,"kernel_constraint":null,"bias_constraint":null,"name":"Shannyn_Sossamon","trainable":true},"inbound_nodes":[[["input151",0,0,{}]]]},{"name":"Amber_Heard","class_name":"Dense","config":{"units":136,"activation":"linear","use_bias":true,"kernel_initializer":{"class_name":"VarianceScaling","config":{"scale":1,"mode":"fan_avg","distribution":"normal","seed":null}},"bias_initializer":{"class_name":"Zeros","config":{}},"kernel_regularizer":null,"bias_regularizer":null,"activity_regularizer":null,"kernel_constraint":null,"bias_constraint":null,"name":"Amber_Heard","trainable":true},"inbound_nodes":[[["input152",0,0,{}]]]},{"name":"Piper_Perabo","class_name":"Dense","config":{"units":136,"activation":"linear","use_bias":true,"kernel_initializer":{"class_name":"VarianceScaling","config":{"scale":1,"mode":"fan_avg","distribution":"normal","seed":null}},"bias_initializer":{"class_name":"Zeros","config":{}},"kernel_regularizer":null,"bias_regularizer":null,"activity_regularizer":null,"kernel_constraint":null,"bias_constraint":null,"name":"Piper_Perabo","trainable":true},"inbound_nodes":[[["input153",0,0,{}]]]},{"name":"Ava_Gardner","class_name":"Dense","config":{"units":136,"activation":"linear","use_bias":true,"kernel_initializer":{"class_name":"VarianceScaling","config":{"scale":1,"mode":"fan_avg","distribution":"normal","seed":null}},"bias_initializer":{"class_name":"Zeros","config":{}},"kernel_regularizer":null,"bias_regularizer":null,"activity_regularizer":null,"kernel_constraint":null,"bias_constraint":null,"name":"Ava_Gardner","trainable":true},"inbound_nodes":[[["input154",0,0,{}]]]},{"name":"Jordana_Brewster","class_name":"Dense","config":{"units":136,"activation":"linear","use_bias":true,"kernel_initializer":{"class_name":"VarianceScaling","config":{"scale":1,"mode":"fan_avg","distribution":"normal","seed":null}},"bias_initializer":{"class_name":"Zeros","config":{}},"kernel_regularizer":null,"bias_regularizer":null,"activity_regularizer":null,"kernel_constraint":null,"bias_constraint":null,"name":"Jordana_Brewster","trainable":true},"inbound_nodes":[[["input155",0,0,{}]]]},{"name":"Samaire_Armstrong","class_name":"Dense","config":{"units":136,"activation":"linear","use_bias":true,"kernel_initializer":{"class_name":"VarianceScaling","config":{"scale":1,"mode":"fan_avg","distribution":"normal","seed":null}},"bias_initializer":{"class_name":"Zeros","config":{}},"kernel_regularizer":null,"bias_regularizer":null,"activity_regularizer":null,"kernel_constraint":null,"bias_constraint":null,"name":"Samaire_Armstrong","trainable":true},"inbound_nodes":[[["input156",0,0,{}]]]},{"name":"Carey_Mulligan","class_name":"Dense","config":{"units":136,"activation":"linear","use_bias":true,"kernel_initializer":{"class_name":"VarianceScaling","config":{"scale":1,"mode":"fan_avg","distribution":"normal","seed":null}},"bias_initializer":{"class_name":"Zeros","config":{}},"kernel_regularizer":null,"bias_regularizer":null,"activity_regularizer":null,"kernel_constraint":null,"bias_constraint":null,"name":"Carey_Mulligan","trainable":true},"inbound_nodes":[[["input157",0,0,{}]]]},{"name":"Kate_Hudson","class_name":"Dense","config":{"units":136,"activation":"linear","use_bias":true,"kernel_initializer":{"class_name":"VarianceScaling","config":{"scale":1,"mode":"fan_avg","distribution":"normal","seed":null}},"bias_initializer":{"class_name":"Zeros","config":{}},"kernel_regularizer":null,"bias_regularizer":null,"activity_regularizer":null,"kernel_constraint":null,"bias_constraint":null,"name":"Kate_Hudson","trainable":true},"inbound_nodes":[[["input158",0,0,{}]]]},{"name":"Gina_Lollobrigida","class_name":"Dense","config":{"units":136,"activation":"linear","use_bias":true,"kernel_initializer":{"class_name":"VarianceScaling","config":{"scale":1,"mode":"fan_avg","distribution":"normal","seed":null}},"bias_initializer":{"class_name":"Zeros","config":{}},"kernel_regularizer":null,"bias_regularizer":null,"activity_regularizer":null,"kernel_constraint":null,"bias_constraint":null,"name":"Gina_Lollobrigida","trainable":true},"inbound_nodes":[[["input159",0,0,{}]]]},{"name":"Gemma_Arterton","class_name":"Dense","config":{"units":136,"activation":"linear","use_bias":true,"kernel_initializer":{"class_name":"VarianceScaling","config":{"scale":1,"mode":"fan_avg","distribution":"normal","seed":null}},"bias_initializer":{"class_name":"Zeros","config":{}},"kernel_regularizer":null,"bias_regularizer":null,"activity_regularizer":null,"kernel_constraint":null,"bias_constraint":null,"name":"Gemma_Arterton","trainable":true},"inbound_nodes":[[["input160",0,0,{}]]]},{"name":"Jennifer_Lopez","class_name":"Dense","config":{"units":136,"activation":"linear","use_bias":true,"kernel_initializer":{"class_name":"VarianceScaling","config":{"scale":1,"mode":"fan_avg","distribution":"normal","seed":null}},"bias_initializer":{"class_name":"Zeros","config":{}},"kernel_regularizer":null,"bias_regularizer":null,"activity_regularizer":null,"kernel_constraint":null,"bias_constraint":null,"name":"Jennifer_Lopez","trainable":true},"inbound_nodes":[[["input161",0,0,{}]]]},{"name":"Naya_Rivera","class_name":"Dense","config":{"units":136,"activation":"linear","use_bias":true,"kernel_initializer":{"class_name":"VarianceScaling","config":{"scale":1,"mode":"fan_avg","distribution":"normal","seed":null}},"bias_initializer":{"class_name":"Zeros","config":{}},"kernel_regularizer":null,"bias_regularizer":null,"activity_regularizer":null,"kernel_constraint":null,"bias_constraint":null,"name":"Naya_Rivera","trainable":true},"inbound_nodes":[[["input162",0,0,{}]]]},{"name":"Emma_Roberts","class_name":"Dense","config":{"units":136,"activation":"linear","use_bias":true,"kernel_initializer":{"class_name":"VarianceScaling","config":{"scale":1,"mode":"fan_avg","distribution":"normal","seed":null}},"bias_initializer":{"class_name":"Zeros","config":{}},"kernel_regularizer":null,"bias_regularizer":null,"activity_regularizer":null,"kernel_constraint":null,"bias_constraint":null,"name":"Emma_Roberts","trainable":true},"inbound_nodes":[[["input163",0,0,{}]]]},{"name":"Kim_Basinger","class_name":"Dense","config":{"units":136,"activation":"linear","use_bias":true,"kernel_initializer":{"class_name":"VarianceScaling","config":{"scale":1,"mode":"fan_avg","distribution":"normal","seed":null}},"bias_initializer":{"class_name":"Zeros","config":{}},"kernel_regularizer":null,"bias_regularizer":null,"activity_regularizer":null,"kernel_constraint":null,"bias_constraint":null,"name":"Kim_Basinger","trainable":true},"inbound_nodes":[[["input164",0,0,{}]]]},{"name":"Brigitte_Bardot","class_name":"Dense","config":{"units":136,"activation":"linear","use_bias":true,"kernel_initializer":{"class_name":"VarianceScaling","config":{"scale":1,"mode":"fan_avg","distribution":"normal","seed":null}},"bias_initializer":{"class_name":"Zeros","config":{}},"kernel_regularizer":null,"bias_regularizer":null,"activity_regularizer":null,"kernel_constraint":null,"bias_constraint":null,"name":"Brigitte_Bardot","trainable":true},"inbound_nodes":[[["input165",0,0,{}]]]},{"name":"Elizabeth_Taylor","class_name":"Dense","config":{"units":136,"activation":"linear","use_bias":true,"kernel_initializer":{"class_name":"VarianceScaling","config":{"scale":1,"mode":"fan_avg","distribution":"normal","seed":null}},"bias_initializer":{"class_name":"Zeros","config":{}},"kernel_regularizer":null,"bias_regularizer":null,"activity_regularizer":null,"kernel_constraint":null,"bias_constraint":null,"name":"Elizabeth_Taylor","trainable":true},"inbound_nodes":[[["input166",0,0,{}]]]},{"name":"Reese_Witherspoon","class_name":"Dense","config":{"units":136,"activation":"linear","use_bias":true,"kernel_initializer":{"class_name":"VarianceScaling","config":{"scale":1,"mode":"fan_avg","distribution":"normal","seed":null}},"bias_initializer":{"class_name":"Zeros","config":{}},"kernel_regularizer":null,"bias_regularizer":null,"activity_regularizer":null,"kernel_constraint":null,"bias_constraint":null,"name":"Reese_Witherspoon","trainable":true},"inbound_nodes":[[["input167",0,0,{}]]]},{"name":"Brittany_Snow","class_name":"Dense","config":{"units":136,"activation":"linear","use_bias":true,"kernel_initializer":{"class_name":"VarianceScaling","config":{"scale":1,"mode":"fan_avg","distribution":"normal","seed":null}},"bias_initializer":{"class_name":"Zeros","config":{}},"kernel_regularizer":null,"bias_regularizer":null,"activity_regularizer":null,"kernel_constraint":null,"bias_constraint":null,"name":"Brittany_Snow","trainable":true},"inbound_nodes":[[["input168",0,0,{}]]]},{"name":"Nina_Dobrev","class_name":"Dense","config":{"units":136,"activation":"linear","use_bias":true,"kernel_initializer":{"class_name":"VarianceScaling","config":{"scale":1,"mode":"fan_avg","distribution":"normal","seed":null}},"bias_initializer":{"class_name":"Zeros","config":{}},"kernel_regularizer":null,"bias_regularizer":null,"activity_regularizer":null,"kernel_constraint":null,"bias_constraint":null,"name":"Nina_Dobrev","trainable":true},"inbound_nodes":[[["input169",0,0,{}]]]},{"name":"Zoe_Saldana","class_name":"Dense","config":{"units":136,"activation":"linear","use_bias":true,"kernel_initializer":{"class_name":"VarianceScaling","config":{"scale":1,"mode":"fan_avg","distribution":"normal","seed":null}},"bias_initializer":{"class_name":"Zeros","config":{}},"kernel_regularizer":null,"bias_regularizer":null,"activity_regularizer":null,"kernel_constraint":null,"bias_constraint":null,"name":"Zoe_Saldana","trainable":true},"inbound_nodes":[[["input170",0,0,{}]]]},{"name":"Lena_Headey","class_name":"Dense","config":{"units":136,"activation":"linear","use_bias":true,"kernel_initializer":{"class_name":"VarianceScaling","config":{"scale":1,"mode":"fan_avg","distribution":"normal","seed":null}},"bias_initializer":{"class_name":"Zeros","config":{}},"kernel_regularizer":null,"bias_regularizer":null,"activity_regularizer":null,"kernel_constraint":null,"bias_constraint":null,"name":"Lena_Headey","trainable":true},"inbound_nodes":[[["input171",0,0,{}]]]},{"name":"Princess_Diana","class_name":"Dense","config":{"units":136,"activation":"linear","use_bias":true,"kernel_initializer":{"class_name":"VarianceScaling","config":{"scale":1,"mode":"fan_avg","distribution":"normal","seed":null}},"bias_initializer":{"class_name":"Zeros","config":{}},"kernel_regularizer":null,"bias_regularizer":null,"activity_regularizer":null,"kernel_constraint":null,"bias_constraint":null,"name":"Princess_Diana","trainable":true},"inbound_nodes":[[["input172",0,0,{}]]]},{"name":"Monica_Bellucci","class_name":"Dense","config":{"units":136,"activation":"linear","use_bias":true,"kernel_initializer":{"class_name":"VarianceScaling","config":{"scale":1,"mode":"fan_avg","distribution":"normal","seed":null}},"bias_initializer":{"class_name":"Zeros","config":{}},"kernel_regularizer":null,"bias_regularizer":null,"activity_regularizer":null,"kernel_constraint":null,"bias_constraint":null,"name":"Monica_Bellucci","trainable":true},"inbound_nodes":[[["input173",0,0,{}]]]},{"name":"Ann_Margret","class_name":"Dense","config":{"units":136,"activation":"linear","use_bias":true,"kernel_initializer":{"class_name":"VarianceScaling","config":{"scale":1,"mode":"fan_avg","distribution":"normal","seed":null}},"bias_initializer":{"class_name":"Zeros","config":{}},"kernel_regularizer":null,"bias_regularizer":null,"activity_regularizer":null,"kernel_constraint":null,"bias_constraint":null,"name":"Ann_Margret","trainable":true},"inbound_nodes":[[["input174",0,0,{}]]]},{"name":"Ursula_Andress","class_name":"Dense","config":{"units":136,"activation":"linear","use_bias":true,"kernel_initializer":{"class_name":"VarianceScaling","config":{"scale":1,"mode":"fan_avg","distribution":"normal","seed":null}},"bias_initializer":{"class_name":"Zeros","config":{}},"kernel_regularizer":null,"bias_regularizer":null,"activity_regularizer":null,"kernel_constraint":null,"bias_constraint":null,"name":"Ursula_Andress","trainable":true},"inbound_nodes":[[["input175",0,0,{}]]]},{"name":"Farrah_Fawcett","class_name":"Dense","config":{"units":136,"activation":"linear","use_bias":true,"kernel_initializer":{"class_name":"VarianceScaling","config":{"scale":1,"mode":"fan_avg","distribution":"normal","seed":null}},"bias_initializer":{"class_name":"Zeros","config":{}},"kernel_regularizer":null,"bias_regularizer":null,"activity_regularizer":null,"kernel_constraint":null,"bias_constraint":null,"name":"Farrah_Fawcett","trainable":true},"inbound_nodes":[[["input176",0,0,{}]]]},{"name":"Sharon_Stone","class_name":"Dense","config":{"units":136,"activation":"linear","use_bias":true,"kernel_initializer":{"class_name":"VarianceScaling","config":{"scale":1,"mode":"fan_avg","distribution":"normal","seed":null}},"bias_initializer":{"class_name":"Zeros","config":{}},"kernel_regularizer":null,"bias_regularizer":null,"activity_regularizer":null,"kernel_constraint":null,"bias_constraint":null,"name":"Sharon_Stone","trainable":true},"inbound_nodes":[[["input177",0,0,{}]]]},{"name":"Cybill_Shepherd","class_name":"Dense","config":{"units":136,"activation":"linear","use_bias":true,"kernel_initializer":{"class_name":"VarianceScaling","config":{"scale":1,"mode":"fan_avg","distribution":"normal","seed":null}},"bias_initializer":{"class_name":"Zeros","config":{}},"kernel_regularizer":null,"bias_regularizer":null,"activity_regularizer":null,"kernel_constraint":null,"bias_constraint":null,"name":"Cybill_Shepherd","trainable":true},"inbound_nodes":[[["input178",0,0,{}]]]},{"name":"Alicia_Keys","class_name":"Dense","config":{"units":136,"activation":"linear","use_bias":true,"kernel_initializer":{"class_name":"VarianceScaling","config":{"scale":1,"mode":"fan_avg","distribution":"normal","seed":null}},"bias_initializer":{"class_name":"Zeros","config":{}},"kernel_regularizer":null,"bias_regularizer":null,"activity_regularizer":null,"kernel_constraint":null,"bias_constraint":null,"name":"Alicia_Keys","trainable":true},"inbound_nodes":[[["input179",0,0,{}]]]},{"name":"Jackie_Kennedy","class_name":"Dense","config":{"units":136,"activation":"linear","use_bias":true,"kernel_initializer":{"class_name":"VarianceScaling","config":{"scale":1,"mode":"fan_avg","distribution":"normal","seed":null}},"bias_initializer":{"class_name":"Zeros","config":{}},"kernel_regularizer":null,"bias_regularizer":null,"activity_regularizer":null,"kernel_constraint":null,"bias_constraint":null,"name":"Jackie_Kennedy","trainable":true},"inbound_nodes":[[["input180",0,0,{}]]]},{"name":"Brooke_Shields","class_name":"Dense","config":{"units":136,"activation":"linear","use_bias":true,"kernel_initializer":{"class_name":"VarianceScaling","config":{"scale":1,"mode":"fan_avg","distribution":"normal","seed":null}},"bias_initializer":{"class_name":"Zeros","config":{}},"kernel_regularizer":null,"bias_regularizer":null,"activity_regularizer":null,"kernel_constraint":null,"bias_constraint":null,"name":"Brooke_Shields","trainable":true},"inbound_nodes":[[["input181",0,0,{}]]]},{"name":"Jane_Seymour","class_name":"Dense","config":{"units":136,"activation":"linear","use_bias":true,"kernel_initializer":{"class_name":"VarianceScaling","config":{"scale":1,"mode":"fan_avg","distribution":"normal","seed":null}},"bias_initializer":{"class_name":"Zeros","config":{}},"kernel_regularizer":null,"bias_regularizer":null,"activity_regularizer":null,"kernel_constraint":null,"bias_constraint":null,"name":"Jane_Seymour","trainable":true},"inbound_nodes":[[["input182",0,0,{}]]]},{"name":"Jennifer_Lawrence","class_name":"Dense","config":{"units":136,"activation":"linear","use_bias":true,"kernel_initializer":{"class_name":"VarianceScaling","config":{"scale":1,"mode":"fan_avg","distribution":"normal","seed":null}},"bias_initializer":{"class_name":"Zeros","config":{}},"kernel_regularizer":null,"bias_regularizer":null,"activity_regularizer":null,"kernel_constraint":null,"bias_constraint":null,"name":"Jennifer_Lawrence","trainable":true},"inbound_nodes":[[["input183",0,0,{}]]]},{"name":"Naomi_Watts","class_name":"Dense","config":{"units":136,"activation":"linear","use_bias":true,"kernel_initializer":{"class_name":"VarianceScaling","config":{"scale":1,"mode":"fan_avg","distribution":"normal","seed":null}},"bias_initializer":{"class_name":"Zeros","config":{}},"kernel_regularizer":null,"bias_regularizer":null,"activity_regularizer":null,"kernel_constraint":null,"bias_constraint":null,"name":"Naomi_Watts","trainable":true},"inbound_nodes":[[["input184",0,0,{}]]]},{"name":"Ornella_Muti","class_name":"Dense","config":{"units":136,"activation":"linear","use_bias":true,"kernel_initializer":{"class_name":"VarianceScaling","config":{"scale":1,"mode":"fan_avg","distribution":"normal","seed":null}},"bias_initializer":{"class_name":"Zeros","config":{}},"kernel_regularizer":null,"bias_regularizer":null,"activity_regularizer":null,"kernel_constraint":null,"bias_constraint":null,"name":"Ornella_Muti","trainable":true},"inbound_nodes":[[["input185",0,0,{}]]]},{"name":"Nelly_Furtado","class_name":"Dense","config":{"units":136,"activation":"linear","use_bias":true,"kernel_initializer":{"class_name":"VarianceScaling","config":{"scale":1,"mode":"fan_avg","distribution":"normal","seed":null}},"bias_initializer":{"class_name":"Zeros","config":{}},"kernel_regularizer":null,"bias_regularizer":null,"activity_regularizer":null,"kernel_constraint":null,"bias_constraint":null,"name":"Nelly_Furtado","trainable":true},"inbound_nodes":[[["input186",0,0,{}]]]},{"name":"Charlize_Theron","class_name":"Dense","config":{"units":136,"activation":"linear","use_bias":true,"kernel_initializer":{"class_name":"VarianceScaling","config":{"scale":1,"mode":"fan_avg","distribution":"normal","seed":null}},"bias_initializer":{"class_name":"Zeros","config":{}},"kernel_regularizer":null,"bias_regularizer":null,"activity_regularizer":null,"kernel_constraint":null,"bias_constraint":null,"name":"Charlize_Theron","trainable":true},"inbound_nodes":[[["input187",0,0,{}]]]},{"name":"Demi_Moore","class_name":"Dense","config":{"units":136,"activation":"linear","use_bias":true,"kernel_initializer":{"class_name":"VarianceScaling","config":{"scale":1,"mode":"fan_avg","distribution":"normal","seed":null}},"bias_initializer":{"class_name":"Zeros","config":{}},"kernel_regularizer":null,"bias_regularizer":null,"activity_regularizer":null,"kernel_constraint":null,"bias_constraint":null,"name":"Demi_Moore","trainable":true},"inbound_nodes":[[["input188",0,0,{}]]]},{"name":"Elke_Sommer","class_name":"Dense","config":{"units":136,"activation":"linear","use_bias":true,"kernel_initializer":{"class_name":"VarianceScaling","config":{"scale":1,"mode":"fan_avg","distribution":"normal","seed":null}},"bias_initializer":{"class_name":"Zeros","config":{}},"kernel_regularizer":null,"bias_regularizer":null,"activity_regularizer":null,"kernel_constraint":null,"bias_constraint":null,"name":"Elke_Sommer","trainable":true},"inbound_nodes":[[["input189",0,0,{}]]]},{"name":"Kirsten_Dunst","class_name":"Dense","config":{"units":136,"activation":"linear","use_bias":true,"kernel_initializer":{"class_name":"VarianceScaling","config":{"scale":1,"mode":"fan_avg","distribution":"normal","seed":null}},"bias_initializer":{"class_name":"Zeros","config":{}},"kernel_regularizer":null,"bias_regularizer":null,"activity_regularizer":null,"kernel_constraint":null,"bias_constraint":null,"name":"Kirsten_Dunst","trainable":true},"inbound_nodes":[[["input190",0,0,{}]]]},{"name":"Anne_Hathaway","class_name":"Dense","config":{"units":136,"activation":"linear","use_bias":true,"kernel_initializer":{"class_name":"VarianceScaling","config":{"scale":1,"mode":"fan_avg","distribution":"normal","seed":null}},"bias_initializer":{"class_name":"Zeros","config":{}},"kernel_regularizer":null,"bias_regularizer":null,"activity_regularizer":null,"kernel_constraint":null,"bias_constraint":null,"name":"Anne_Hathaway","trainable":true},"inbound_nodes":[[["input191",0,0,{}]]]},{"name":"Goldie_Hawn","class_name":"Dense","config":{"units":136,"activation":"linear","use_bias":true,"kernel_initializer":{"class_name":"VarianceScaling","config":{"scale":1,"mode":"fan_avg","distribution":"normal","seed":null}},"bias_initializer":{"class_name":"Zeros","config":{}},"kernel_regularizer":null,"bias_regularizer":null,"activity_regularizer":null,"kernel_constraint":null,"bias_constraint":null,"name":"Goldie_Hawn","trainable":true},"inbound_nodes":[[["input192",0,0,{}]]]},{"name":"Cameron_Diaz","class_name":"Dense","config":{"units":136,"activation":"linear","use_bias":true,"kernel_initializer":{"class_name":"VarianceScaling","config":{"scale":1,"mode":"fan_avg","distribution":"normal","seed":null}},"bias_initializer":{"class_name":"Zeros","config":{}},"kernel_regularizer":null,"bias_regularizer":null,"activity_regularizer":null,"kernel_constraint":null,"bias_constraint":null,"name":"Cameron_Diaz","trainable":true},"inbound_nodes":[[["input193",0,0,{}]]]},{"name":"Kate_Bosworth","class_name":"Dense","config":{"units":136,"activation":"linear","use_bias":true,"kernel_initializer":{"class_name":"VarianceScaling","config":{"scale":1,"mode":"fan_avg","distribution":"normal","seed":null}},"bias_initializer":{"class_name":"Zeros","config":{}},"kernel_regularizer":null,"bias_regularizer":null,"activity_regularizer":null,"kernel_constraint":null,"bias_constraint":null,"name":"Kate_Bosworth","trainable":true},"inbound_nodes":[[["input194",0,0,{}]]]},{"name":"Jennifer_Aniston","class_name":"Dense","config":{"units":136,"activation":"linear","use_bias":true,"kernel_initializer":{"class_name":"VarianceScaling","config":{"scale":1,"mode":"fan_avg","distribution":"normal","seed":null}},"bias_initializer":{"class_name":"Zeros","config":{}},"kernel_regularizer":null,"bias_regularizer":null,"activity_regularizer":null,"kernel_constraint":null,"bias_constraint":null,"name":"Jennifer_Aniston","trainable":true},"inbound_nodes":[[["input195",0,0,{}]]]},{"name":"Penelope_Cruz","class_name":"Dense","config":{"units":136,"activation":"linear","use_bias":true,"kernel_initializer":{"class_name":"VarianceScaling","config":{"scale":1,"mode":"fan_avg","distribution":"normal","seed":null}},"bias_initializer":{"class_name":"Zeros","config":{}},"kernel_regularizer":null,"bias_regularizer":null,"activity_regularizer":null,"kernel_constraint":null,"bias_constraint":null,"name":"Penelope_Cruz","trainable":true},"inbound_nodes":[[["input196",0,0,{}]]]},{"name":"Michelle_Pfeiffer","class_name":"Dense","config":{"units":136,"activation":"linear","use_bias":true,"kernel_initializer":{"class_name":"VarianceScaling","config":{"scale":1,"mode":"fan_avg","distribution":"normal","seed":null}},"bias_initializer":{"class_name":"Zeros","config":{}},"kernel_regularizer":null,"bias_regularizer":null,"activity_regularizer":null,"kernel_constraint":null,"bias_constraint":null,"name":"Michelle_Pfeiffer","trainable":true},"inbound_nodes":[[["input197",0,0,{}]]]},{"name":"Natalie_Wood","class_name":"Dense","config":{"units":136,"activation":"linear","use_bias":true,"kernel_initializer":{"class_name":"VarianceScaling","config":{"scale":1,"mode":"fan_avg","distribution":"normal","seed":null}},"bias_initializer":{"class_name":"Zeros","config":{}},"kernel_regularizer":null,"bias_regularizer":null,"activity_regularizer":null,"kernel_constraint":null,"bias_constraint":null,"name":"Natalie_Wood","trainable":true},"inbound_nodes":[[["input198",0,0,{}]]]},{"name":"Halle_Berry","class_name":"Dense","config":{"units":136,"activation":"linear","use_bias":true,"kernel_initializer":{"class_name":"VarianceScaling","config":{"scale":1,"mode":"fan_avg","distribution":"normal","seed":null}},"bias_initializer":{"class_name":"Zeros","config":{}},"kernel_regularizer":null,"bias_regularizer":null,"activity_regularizer":null,"kernel_constraint":null,"bias_constraint":null,"name":"Halle_Berry","trainable":true},"inbound_nodes":[[["input199",0,0,{}]]]},{"name":"Kate_Winslet","class_name":"Dense","config":{"units":136,"activation":"linear","use_bias":true,"kernel_initializer":{"class_name":"VarianceScaling","config":{"scale":1,"mode":"fan_avg","distribution":"normal","seed":null}},"bias_initializer":{"class_name":"Zeros","config":{}},"kernel_regularizer":null,"bias_regularizer":null,"activity_regularizer":null,"kernel_constraint":null,"bias_constraint":null,"name":"Kate_Winslet","trainable":true},"inbound_nodes":[[["input200",0,0,{}]]]},{"name":"myConcatenate1","class_name":"Concatenate","config":{"axis":1,"name":"myConcatenate1","trainable":true},"inbound_nodes":[[["Megan_Fox",0,0,{}],["Mila_Kunis",0,0,{}],["Amanda_Seyfried",0,0,{}],["Hayden_Panettiere",0,0,{}],["Missy_Peregrym",0,0,{}],["Rachel_McAdams",0,0,{}],["Shantel_VanSanten",0,0,{}],["Natalie_Portman",0,0,{}],["Sophia_Bush",0,0,{}],["Jennifer_Connelly",0,0,{}],["Malin_Akerman",0,0,{}],["Michelle_Monaghan",0,0,{}],["Lyndsy_Fonseca",0,0,{}],["Scarlett_Johansson",0,0,{}],["Raquel_Welch",0,0,{}],["Olivia_Wilde",0,0,{}],["Emma_Stone",0,0,{}],["Jessica_Alba",0,0,{}],["Bethany_Joy_Lenz",0,0,{}],["Ellen_Page",0,0,{}],["Kate_Beckinsale",0,0,{}],["Diane_Kruger",0,0,{}],["Rihanna",0,0,{}],["Rachel_Bilson",0,0,{}],["Drew_Barrymore",0,0,{}],["Taylor_Swift",0,0,{}],["Alison_Lohman",0,0,{}],["Angelina_Jolie",0,0,{}],["Marilyn_Monroe",0,0,{}],["Ashley_Greene",0,0,{}],["Jessica_Stroup",0,0,{}],["Ashley_Judd",0,0,{}],["Leighton_Meester",0,0,{}],["Catherine_Zeta_Jones",0,0,{}],["Nikki_Reed",0,0,{}],["Beyonce",0,0,{}],["Shay_Mitchell",0,0,{}],["Eva_Green",0,0,{}],["Cobie_Smulders",0,0,{}],["Zooey_Deschanel",0,0,{}],["Emily_Blunt",0,0,{}],["Kathryn_Prescott",0,0,{}],["Katherine_Heigl",0,0,{}],["Ashley_Benson",0,0,{}],["Hilarie_Burton",0,0,{}],["Alexis_Bledel",0,0,{}],["Rosario_Dawson",0,0,{}],["Kate_Walsh",0,0,{}],["Claire_Danes",0,0,{}],["Sienna_Miller",0,0,{}],["Shannyn_Sossamon",0,0,{}],["Amber_Heard",0,0,{}],["Piper_Perabo",0,0,{}],["Ava_Gardner",0,0,{}],["Jordana_Brewster",0,0,{}],["Samaire_Armstrong",0,0,{}],["Carey_Mulligan",0,0,{}],["Kate_Hudson",0,0,{}],["Gina_Lollobrigida",0,0,{}],["Gemma_Arterton",0,0,{}],["Jennifer_Lopez",0,0,{}],["Naya_Rivera",0,0,{}],["Emma_Roberts",0,0,{}],["Kim_Basinger",0,0,{}],["Brigitte_Bardot",0,0,{}],["Elizabeth_Taylor",0,0,{}],["Reese_Witherspoon",0,0,{}],["Brittany_Snow",0,0,{}],["Nina_Dobrev",0,0,{}],["Zoe_Saldana",0,0,{}],["Lena_Headey",0,0,{}],["Princess_Diana",0,0,{}],["Monica_Bellucci",0,0,{}],["Ann_Margret",0,0,{}],["Ursula_Andress",0,0,{}],["Farrah_Fawcett",0,0,{}],["Sharon_Stone",0,0,{}],["Cybill_Shepherd",0,0,{}],["Alicia_Keys",0,0,{}],["Jackie_Kennedy",0,0,{}],["Brooke_Shields",0,0,{}],["Jane_Seymour",0,0,{}],["Jennifer_Lawrence",0,0,{}],["Naomi_Watts",0,0,{}],["Ornella_Muti",0,0,{}],["Nelly_Furtado",0,0,{}],["Charlize_Theron",0,0,{}],["Demi_Moore",0,0,{}],["Elke_Sommer",0,0,{}],["Kirsten_Dunst",0,0,{}],["Anne_Hathaway",0,0,{}],["Goldie_Hawn",0,0,{}],["Cameron_Diaz",0,0,{}],["Kate_Bosworth",0,0,{}],["Jennifer_Aniston",0,0,{}],["Penelope_Cruz",0,0,{}],["Michelle_Pfeiffer",0,0,{}],["Natalie_Wood",0,0,{}],["Halle_Berry",0,0,{}],["Kate_Winslet",0,0,{}]]]},{"name":"myConcatenate1Dense4","class_name":"Dense","config":{"units":1,"activation":"linear","use_bias":true,"kernel_initializer":{"class_name":"VarianceScaling","config":{"scale":1,"mode":"fan_avg","distribution":"normal","seed":null}},"bias_initializer":{"class_name":"Zeros","config":{}},"kernel_regularizer":null,"bias_regularizer":null,"activity_regularizer":null,"kernel_constraint":null,"bias_constraint":null,"name":"myConcatenate1Dense4","trainable":true},"inbound_nodes":[[["myConcatenate1",0,0,{}]]]}],"input_layers":[["input101",0,0],["input102",0,0],["input103",0,0],["input104",0,0],["input105",0,0],["input106",0,0],["input107",0,0],["input108",0,0],["input109",0,0],["input110",0,0],["input111",0,0],["input112",0,0],["input113",0,0],["input114",0,0],["input115",0,0],["input116",0,0],["input117",0,0],["input118",0,0],["input119",0,0],["input120",0,0],["input121",0,0],["input122",0,0],["input123",0,0],["input124",0,0],["input125",0,0],["input126",0,0],["input127",0,0],["input128",0,0],["input129",0,0],["input130",0,0],["input131",0,0],["input132",0,0],["input133",0,0],["input134",0,0],["input135",0,0],["input136",0,0],["input137",0,0],["input138",0,0],["input139",0,0],["input140",0,0],["input141",0,0],["input142",0,0],["input143",0,0],["input144",0,0],["input145",0,0],["input146",0,0],["input147",0,0],["input148",0,0],["input149",0,0],["input150",0,0],["input151",0,0],["input152",0,0],["input153",0,0],["input154",0,0],["input155",0,0],["input156",0,0],["input157",0,0],["input158",0,0],["input159",0,0],["input160",0,0],["input161",0,0],["input162",0,0],["input163",0,0],["input164",0,0],["input165",0,0],["input166",0,0],["input167",0,0],["input168",0,0],["input169",0,0],["input170",0,0],["input171",0,0],["input172",0,0],["input173",0,0],["input174",0,0],["input175",0,0],["input176",0,0],["input177",0,0],["input178",0,0],["input179",0,0],["input180",0,0],["input181",0,0],["input182",0,0],["input183",0,0],["input184",0,0],["input185",0,0],["input186",0,0],["input187",0,0],["input188",0,0],["input189",0,0],["input190",0,0],["input191",0,0],["input192",0,0],["input193",0,0],["input194",0,0],["input195",0,0],["input196",0,0],["input197",0,0],["input198",0,0],["input199",0,0],["input200",0,0]],"output_layers":[["myConcatenate1Dense4",0,0]]},"keras_version":"tfjs-layers 0.8.1","backend":"tensor_flow.js"},"weightsManifest":[{"paths":["./myClassifierModel01.weights.bin"],"weights":[{"name":"Megan_Fox/kernel","shape":[3,136],"dtype":"float32"},{"name":"Megan_Fox/bias","shape":[136],"dtype":"float32"},{"name":"Mila_Kunis/kernel","shape":[3,136],"dtype":"float32"},{"name":"Mila_Kunis/bias","shape":[136],"dtype":"float32"},{"name":"Amanda_Seyfried/kernel","shape":[3,136],"dtype":"float32"},{"name":"Amanda_Seyfried/bias","shape":[136],"dtype":"float32"},{"name":"Hayden_Panettiere/kernel","shape":[3,136],"dtype":"float32"},{"name":"Hayden_Panettiere/bias","shape":[136],"dtype":"float32"},{"name":"Missy_Peregrym/kernel","shape":[3,136],"dtype":"float32"},{"name":"Missy_Peregrym/bias","shape":[136],"dtype":"float32"},{"name":"Rachel_McAdams/kernel","shape":[3,136],"dtype":"float32"},{"name":"Rachel_McAdams/bias","shape":[136],"dtype":"float32"},{"name":"Shantel_VanSanten/kernel","shape":[3,136],"dtype":"float32"},{"name":"Shantel_VanSanten/bias","shape":[136],"dtype":"float32"},{"name":"Natalie_Portman/kernel","shape":[3,136],"dtype":"float32"},{"name":"Natalie_Portman/bias","shape":[136],"dtype":"float32"},{"name":"Sophia_Bush/kernel","shape":[3,136],"dtype":"float32"},{"name":"Sophia_Bush/bias","shape":[136],"dtype":"float32"},{"name":"Jennifer_Connelly/kernel","shape":[3,136],"dtype":"float32"},{"name":"Jennifer_Connelly/bias","shape":[136],"dtype":"float32"},{"name":"Malin_Akerman/kernel","shape":[3,136],"dtype":"float32"},{"name":"Malin_Akerman/bias","shape":[136],"dtype":"float32"},{"name":"Michelle_Monaghan/kernel","shape":[3,136],"dtype":"float32"},{"name":"Michelle_Monaghan/bias","shape":[136],"dtype":"float32"},{"name":"Lyndsy_Fonseca/kernel","shape":[3,136],"dtype":"float32"},{"name":"Lyndsy_Fonseca/bias","shape":[136],"dtype":"float32"},{"name":"Scarlett_Johansson/kernel","shape":[3,136],"dtype":"float32"},{"name":"Scarlett_Johansson/bias","shape":[136],"dtype":"float32"},{"name":"Raquel_Welch/kernel","shape":[3,136],"dtype":"float32"},{"name":"Raquel_Welch/bias","shape":[136],"dtype":"float32"},{"name":"Olivia_Wilde/kernel","shape":[3,136],"dtype":"float32"},{"name":"Olivia_Wilde/bias","shape":[136],"dtype":"float32"},{"name":"Emma_Stone/kernel","shape":[3,136],"dtype":"float32"},{"name":"Emma_Stone/bias","shape":[136],"dtype":"float32"},{"name":"Jessica_Alba/kernel","shape":[3,136],"dtype":"float32"},{"name":"Jessica_Alba/bias","shape":[136],"dtype":"float32"},{"name":"Bethany_Joy_Lenz/kernel","shape":[3,136],"dtype":"float32"},{"name":"Bethany_Joy_Lenz/bias","shape":[136],"dtype":"float32"},{"name":"Ellen_Page/kernel","shape":[3,136],"dtype":"float32"},{"name":"Ellen_Page/bias","shape":[136],"dtype":"float32"},{"name":"Kate_Beckinsale/kernel","shape":[3,136],"dtype":"float32"},{"name":"Kate_Beckinsale/bias","shape":[136],"dtype":"float32"},{"name":"Diane_Kruger/kernel","shape":[3,136],"dtype":"float32"},{"name":"Diane_Kruger/bias","shape":[136],"dtype":"float32"},{"name":"Rihanna/kernel","shape":[3,136],"dtype":"float32"},{"name":"Rihanna/bias","shape":[136],"dtype":"float32"},{"name":"Rachel_Bilson/kernel","shape":[3,136],"dtype":"float32"},{"name":"Rachel_Bilson/bias","shape":[136],"dtype":"float32"},{"name":"Drew_Barrymore/kernel","shape":[3,136],"dtype":"float32"},{"name":"Drew_Barrymore/bias","shape":[136],"dtype":"float32"},{"name":"Taylor_Swift/kernel","shape":[3,136],"dtype":"float32"},{"name":"Taylor_Swift/bias","shape":[136],"dtype":"float32"},{"name":"Alison_Lohman/kernel","shape":[3,136],"dtype":"float32"},{"name":"Alison_Lohman/bias","shape":[136],"dtype":"float32"},{"name":"Angelina_Jolie/kernel","shape":[3,136],"dtype":"float32"},{"name":"Angelina_Jolie/bias","shape":[136],"dtype":"float32"},{"name":"Marilyn_Monroe/kernel","shape":[3,136],"dtype":"float32"},{"name":"Marilyn_Monroe/bias","shape":[136],"dtype":"float32"},{"name":"Ashley_Greene/kernel","shape":[3,136],"dtype":"float32"},{"name":"Ashley_Greene/bias","shape":[136],"dtype":"float32"},{"name":"Jessica_Stroup/kernel","shape":[3,136],"dtype":"float32"},{"name":"Jessica_Stroup/bias","shape":[136],"dtype":"float32"},{"name":"Ashley_Judd/kernel","shape":[3,136],"dtype":"float32"},{"name":"Ashley_Judd/bias","shape":[136],"dtype":"float32"},{"name":"Leighton_Meester/kernel","shape":[3,136],"dtype":"float32"},{"name":"Leighton_Meester/bias","shape":[136],"dtype":"float32"},{"name":"Catherine_Zeta_Jones/kernel","shape":[3,136],"dtype":"float32"},{"name":"Catherine_Zeta_Jones/bias","shape":[136],"dtype":"float32"},{"name":"Nikki_Reed/kernel","shape":[3,136],"dtype":"float32"},{"name":"Nikki_Reed/bias","shape":[136],"dtype":"float32"},{"name":"Beyonce/kernel","shape":[3,136],"dtype":"float32"},{"name":"Beyonce/bias","shape":[136],"dtype":"float32"},{"name":"Shay_Mitchell/kernel","shape":[3,136],"dtype":"float32"},{"name":"Shay_Mitchell/bias","shape":[136],"dtype":"float32"},{"name":"Eva_Green/kernel","shape":[3,136],"dtype":"float32"},{"name":"Eva_Green/bias","shape":[136],"dtype":"float32"},{"name":"Cobie_Smulders/kernel","shape":[3,136],"dtype":"float32"},{"name":"Cobie_Smulders/bias","shape":[136],"dtype":"float32"},{"name":"Zooey_Deschanel/kernel","shape":[3,136],"dtype":"float32"},{"name":"Zooey_Deschanel/bias","shape":[136],"dtype":"float32"},{"name":"Emily_Blunt/kernel","shape":[3,136],"dtype":"float32"},{"name":"Emily_Blunt/bias","shape":[136],"dtype":"float32"},{"name":"Kathryn_Prescott/kernel","shape":[3,136],"dtype":"float32"},{"name":"Kathryn_Prescott/bias","shape":[136],"dtype":"float32"},{"name":"Katherine_Heigl/kernel","shape":[3,136],"dtype":"float32"},{"name":"Katherine_Heigl/bias","shape":[136],"dtype":"float32"},{"name":"Ashley_Benson/kernel","shape":[3,136],"dtype":"float32"},{"name":"Ashley_Benson/bias","shape":[136],"dtype":"float32"},{"name":"Hilarie_Burton/kernel","shape":[3,136],"dtype":"float32"},{"name":"Hilarie_Burton/bias","shape":[136],"dtype":"float32"},{"name":"Alexis_Bledel/kernel","shape":[3,136],"dtype":"float32"},{"name":"Alexis_Bledel/bias","shape":[136],"dtype":"float32"},{"name":"Rosario_Dawson/kernel","shape":[3,136],"dtype":"float32"},{"name":"Rosario_Dawson/bias","shape":[136],"dtype":"float32"},{"name":"Kate_Walsh/kernel","shape":[3,136],"dtype":"float32"},{"name":"Kate_Walsh/bias","shape":[136],"dtype":"float32"},{"name":"Claire_Danes/kernel","shape":[3,136],"dtype":"float32"},{"name":"Claire_Danes/bias","shape":[136],"dtype":"float32"},{"name":"Sienna_Miller/kernel","shape":[3,136],"dtype":"float32"},{"name":"Sienna_Miller/bias","shape":[136],"dtype":"float32"},{"name":"Shannyn_Sossamon/kernel","shape":[3,136],"dtype":"float32"},{"name":"Shannyn_Sossamon/bias","shape":[136],"dtype":"float32"},{"name":"Amber_Heard/kernel","shape":[3,136],"dtype":"float32"},{"name":"Amber_Heard/bias","shape":[136],"dtype":"float32"},{"name":"Piper_Perabo/kernel","shape":[3,136],"dtype":"float32"},{"name":"Piper_Perabo/bias","shape":[136],"dtype":"float32"},{"name":"Ava_Gardner/kernel","shape":[3,136],"dtype":"float32"},{"name":"Ava_Gardner/bias","shape":[136],"dtype":"float32"},{"name":"Jordana_Brewster/kernel","shape":[3,136],"dtype":"float32"},{"name":"Jordana_Brewster/bias","shape":[136],"dtype":"float32"},{"name":"Samaire_Armstrong/kernel","shape":[3,136],"dtype":"float32"},{"name":"Samaire_Armstrong/bias","shape":[136],"dtype":"float32"},{"name":"Carey_Mulligan/kernel","shape":[3,136],"dtype":"float32"},{"name":"Carey_Mulligan/bias","shape":[136],"dtype":"float32"},{"name":"Kate_Hudson/kernel","shape":[3,136],"dtype":"float32"},{"name":"Kate_Hudson/bias","shape":[136],"dtype":"float32"},{"name":"Gina_Lollobrigida/kernel","shape":[3,136],"dtype":"float32"},{"name":"Gina_Lollobrigida/bias","shape":[136],"dtype":"float32"},{"name":"Gemma_Arterton/kernel","shape":[3,136],"dtype":"float32"},{"name":"Gemma_Arterton/bias","shape":[136],"dtype":"float32"},{"name":"Jennifer_Lopez/kernel","shape":[3,136],"dtype":"float32"},{"name":"Jennifer_Lopez/bias","shape":[136],"dtype":"float32"},{"name":"Naya_Rivera/kernel","shape":[3,136],"dtype":"float32"},{"name":"Naya_Rivera/bias","shape":[136],"dtype":"float32"},{"name":"Emma_Roberts/kernel","shape":[3,136],"dtype":"float32"},{"name":"Emma_Roberts/bias","shape":[136],"dtype":"float32"},{"name":"Kim_Basinger/kernel","shape":[3,136],"dtype":"float32"},{"name":"Kim_Basinger/bias","shape":[136],"dtype":"float32"},{"name":"Brigitte_Bardot/kernel","shape":[3,136],"dtype":"float32"},{"name":"Brigitte_Bardot/bias","shape":[136],"dtype":"float32"},{"name":"Elizabeth_Taylor/kernel","shape":[3,136],"dtype":"float32"},{"name":"Elizabeth_Taylor/bias","shape":[136],"dtype":"float32"},{"name":"Reese_Witherspoon/kernel","shape":[3,136],"dtype":"float32"},{"name":"Reese_Witherspoon/bias","shape":[136],"dtype":"float32"},{"name":"Brittany_Snow/kernel","shape":[3,136],"dtype":"float32"},{"name":"Brittany_Snow/bias","shape":[136],"dtype":"float32"},{"name":"Nina_Dobrev/kernel","shape":[3,136],"dtype":"float32"},{"name":"Nina_Dobrev/bias","shape":[136],"dtype":"float32"},{"name":"Zoe_Saldana/kernel","shape":[3,136],"dtype":"float32"},{"name":"Zoe_Saldana/bias","shape":[136],"dtype":"float32"},{"name":"Lena_Headey/kernel","shape":[3,136],"dtype":"float32"},{"name":"Lena_Headey/bias","shape":[136],"dtype":"float32"},{"name":"Princess_Diana/kernel","shape":[3,136],"dtype":"float32"},{"name":"Princess_Diana/bias","shape":[136],"dtype":"float32"},{"name":"Monica_Bellucci/kernel","shape":[3,136],"dtype":"float32"},{"name":"Monica_Bellucci/bias","shape":[136],"dtype":"float32"},{"name":"Ann_Margret/kernel","shape":[3,136],"dtype":"float32"},{"name":"Ann_Margret/bias","shape":[136],"dtype":"float32"},{"name":"Ursula_Andress/kernel","shape":[3,136],"dtype":"float32"},{"name":"Ursula_Andress/bias","shape":[136],"dtype":"float32"},{"name":"Farrah_Fawcett/kernel","shape":[3,136],"dtype":"float32"},{"name":"Farrah_Fawcett/bias","shape":[136],"dtype":"float32"},{"name":"Sharon_Stone/kernel","shape":[3,136],"dtype":"float32"},{"name":"Sharon_Stone/bias","shape":[136],"dtype":"float32"},{"name":"Cybill_Shepherd/kernel","shape":[3,136],"dtype":"float32"},{"name":"Cybill_Shepherd/bias","shape":[136],"dtype":"float32"},{"name":"Alicia_Keys/kernel","shape":[3,136],"dtype":"float32"},{"name":"Alicia_Keys/bias","shape":[136],"dtype":"float32"},{"name":"Jackie_Kennedy/kernel","shape":[3,136],"dtype":"float32"},{"name":"Jackie_Kennedy/bias","shape":[136],"dtype":"float32"},{"name":"Brooke_Shields/kernel","shape":[3,136],"dtype":"float32"},{"name":"Brooke_Shields/bias","shape":[136],"dtype":"float32"},{"name":"Jane_Seymour/kernel","shape":[3,136],"dtype":"float32"},{"name":"Jane_Seymour/bias","shape":[136],"dtype":"float32"},{"name":"Jennifer_Lawrence/kernel","shape":[3,136],"dtype":"float32"},{"name":"Jennifer_Lawrence/bias","shape":[136],"dtype":"float32"},{"name":"Naomi_Watts/kernel","shape":[3,136],"dtype":"float32"},{"name":"Naomi_Watts/bias","shape":[136],"dtype":"float32"},{"name":"Ornella_Muti/kernel","shape":[3,136],"dtype":"float32"},{"name":"Ornella_Muti/bias","shape":[136],"dtype":"float32"},{"name":"Nelly_Furtado/kernel","shape":[3,136],"dtype":"float32"},{"name":"Nelly_Furtado/bias","shape":[136],"dtype":"float32"},{"name":"Charlize_Theron/kernel","shape":[3,136],"dtype":"float32"},{"name":"Charlize_Theron/bias","shape":[136],"dtype":"float32"},{"name":"Demi_Moore/kernel","shape":[3,136],"dtype":"float32"},{"name":"Demi_Moore/bias","shape":[136],"dtype":"float32"},{"name":"Elke_Sommer/kernel","shape":[3,136],"dtype":"float32"},{"name":"Elke_Sommer/bias","shape":[136],"dtype":"float32"},{"name":"Kirsten_Dunst/kernel","shape":[3,136],"dtype":"float32"},{"name":"Kirsten_Dunst/bias","shape":[136],"dtype":"float32"},{"name":"Anne_Hathaway/kernel","shape":[3,136],"dtype":"float32"},{"name":"Anne_Hathaway/bias","shape":[136],"dtype":"float32"},{"name":"Goldie_Hawn/kernel","shape":[3,136],"dtype":"float32"},{"name":"Goldie_Hawn/bias","shape":[136],"dtype":"float32"},{"name":"Cameron_Diaz/kernel","shape":[3,136],"dtype":"float32"},{"name":"Cameron_Diaz/bias","shape":[136],"dtype":"float32"},{"name":"Kate_Bosworth/kernel","shape":[3,136],"dtype":"float32"},{"name":"Kate_Bosworth/bias","shape":[136],"dtype":"float32"},{"name":"Jennifer_Aniston/kernel","shape":[3,136],"dtype":"float32"},{"name":"Jennifer_Aniston/bias","shape":[136],"dtype":"float32"},{"name":"Penelope_Cruz/kernel","shape":[3,136],"dtype":"float32"},{"name":"Penelope_Cruz/bias","shape":[136],"dtype":"float32"},{"name":"Michelle_Pfeiffer/kernel","shape":[3,136],"dtype":"float32"},{"name":"Michelle_Pfeiffer/bias","shape":[136],"dtype":"float32"},{"name":"Natalie_Wood/kernel","shape":[3,136],"dtype":"float32"},{"name":"Natalie_Wood/bias","shape":[136],"dtype":"float32"},{"name":"Halle_Berry/kernel","shape":[3,136],"dtype":"float32"},{"name":"Halle_Berry/bias","shape":[136],"dtype":"float32"},{"name":"Kate_Winslet/kernel","shape":[3,136],"dtype":"float32"},{"name":"Kate_Winslet/bias","shape":[136],"dtype":"float32"},{"name":"myConcatenate1Dense4/kernel","shape":[13600,1],"dtype":"float32"},{"name":"myConcatenate1Dense4/bias","shape":[1],"dtype":"float32"}]}]}